app/src/main/assets/GRUModel.tflite (tflite, 775192 bytes, 14 tensors)

arith.constant f4 [32]
00000000: 9111 d8bd b61a 1ebe 986d 93be f6f1 08bf
00000010: 6b49 1abf fe7a 4cbf 9235 b83f ebd5 203f
00000020: 3eb1 9ebe 05d8 1e3f e434 a93e a44f 39be
00000030: 08f8 963e 1bfd bfbf d479 15bf 361c 6c3e
00000040: d7f8 05be b841 85be ddad 8fbe e9b4 333f
00000050: d1fc dc3e cb8b bebe 6790 013f d201 90bf
00000060: 846d 08be e831 e83e abe5 2a3f 877f 7dbf
00000070: 7858 ecbe 7fd9 b13e c6e1 a0bf 32b0 5a3f
-0.105502255 -0.15439877 -0.2879455 -0.53494203 -0.60268277 -0.7987517 1.4391348 0.6282641
-0.309946 0.6204837 0.33048165 -0.18096787 0.29486108 -1.4999117 -0.5838902 0.23057637
-0.13083206 -0.26026702 -0.28062335 0.7019792 0.43161634 -0.3721603 0.50610965 -1.1250556
-0.13323027 0.45350575 0.66756696 -0.99022716 -0.46161246 0.3473625 -1.25689 0.854251

arith.constant1 f4 [64]
00000000: b3a5 153f 7772 b6be f117 153f 331c adbe
00000010: de7d 273f 4d2b 94be d72f 0b3e 1f1a 0dbf
00000020: 5e1a d8bd c7f0 5dbe f6ac a53f 242c 06bf
00000030: cbb6 a43f 02fe 953f 71e3 b3be 06d2 5ebe
00000040: 07ea 97be ad90 e2bd 3138 29bd bcdd 713e
00000050: 16dd 833e 9168 7abf 61da 73be 25db 7d3f
00000060: b792 c2be 84c0 8f3f 97c2 d7bf 83d9 8b3d
00000070: 8a10 293f 4a6f 8dbe ab33 023f 688b 42bf
00000080: 75f0 623f a57d 753f 659a 733f 04ba f0bd
00000090: 9bf7 86bf e36a 23bf 9bc8 3f3f ffa0 e0be
000000a0: 0e80 f33e cb05 f13e db8b 2e3f 0622 b0be
000000b0: 15f9 a5be 2a72 943e e4a4 fabd 7460 bcbf
000000c0: b8be c3be 0131 873f c4be e0bf b043 d3be
000000d0: d560 aebf 1fc7 85be 86e2 1fbe c076 f83e
000000e0: 8c00 f93c 048a bdbd 0278 c9be 1ebd c0bd
000000f0: 1d0b 9f3f b6ad 95bf ad1e 8d3e 47e7 bf3d
0.5845596 -0.35634205 0.58239657 -0.33810577 0.65426433 -0.28939286 0.13592468 -0.5511798
-0.10551904 -0.2167388 1.2943408 -0.52411103 1.2868284 1.1718142 -0.35134462 -0.21759805
-0.29670736 -0.11062751 -0.041313354 0.23619741 0.25754613 -0.97815806 -0.23813774 0.99162513
-0.3800256 1.1230626 -1.6856259 0.068285964 0.6604086 -0.2762397 0.5086009 -0.7599397
0.8864816 0.95894843 0.9515746 -0.1175423 -1.0544313 -0.6383497 0.74915475 -0.4387283
0.47558635 0.47074732 0.6818215 -0.34400958 -0.32416597 0.2899335 -0.12238482 -1.4716935
-0.38231444 1.056183 -1.7558217 -0.4126258 -1.3623301 -0.2612848 -0.15613756 0.485281
0.030395769 -0.0925484 -0.3934937 -0.09411071 1.2425267 -1.1693637 0.27562466 0.093702845

arith.constant2 f4 [32, 64]
00000000: ba42 20be d5fe 40bf de7e 2bbf 418a 673e
00000010: 63c3 ed3e 1020 d43e bca8 0cbe 6112 1cbf
00000020: 9dd2 433f 0ec3 4dbe 9f00 5ebe d33b e33d
00000030: c95b dd3d 2ab3 8a3d 77cf 33bf d7a6 ae3e
00000040: 6045 02be e44c a63e aaea 483e 15e2 613e
00000050: 45f2 eb3e e942 c8be 2088 e73e ac66 01bf
00000060: f84b f9bd 4b6e 053f 2cca 27bf 6dcb 3d3e
00000070: d66c 483f 66df 50bc 66f5 983e 21bc 5ebd
00000080: e56d a7bd 90d0 143f 7009 f2be 9c34 223f
00000090: 2896 1abf 8872 6c3e d655 eabe da69 f13e
000000a0: ee20 37bf ea33 19bf 7186 8ebe 9655 273d
000000b0: d175 9abd 964e a23e cbae d2be 3e82 203f
000000c0: 766a 1ebf 1fc2 1cbf 5b87 b53e 1c7a 563e
000000d0: bd33 6f3c 8b90 11bf 97b6 b0be cb2d 1e3f
000000e0: 1bed 1e3f 8215 f93e 6cb9 b5bd d261 1b3f
000000f0: 0eaf 363e 971b cd3e 4d2a 963e 06fb d0be
00000100: 4c59 563e 7eb2 8fbb 6837 24be d1b3 d23e
00000110: a33d 233e 967f 41bd c849 7f3e 390c aebe
00000120: 61a4 aebd 233e eabd 92f7 f8be efd4 83be
00000130: cf95 b5be e364 493e 4293 153d d80a 8d3e
00000140: 6006 36be 60fa 88be 0c92 3dbe 51db a53e
00000150: a125 883e 72ed a63e cc0a abbe 2be0 5c3e
00000160: 7ac1 003e 6e60 b53e fa9e b13e 2cce b2be
00000170: bc26 fe3d 3cb9 c7be 2437 01be c7f8 8f3e
00000180: c5ad 033e 346f d3bc a1e5 17be ed75 993d
00000190: bf7e e93d 78b4 15be 37e7 86be 9aed 34be
000001a0: 9769 a3be 4864 a2bc 32ad a23e 8292 ab3d
000001b0: 5f7e e93d f99d d73e 3718 a3bd 79cb 873c
000001c0: e2b6 59be 3fb0 5c3c 64be 503e 3003 c1bd
000001d0: 794e 643e 7843 2abe dbf3 ef3b dac8 023e
000001e0: d4f4 2dbe 0d53 78be ffee 81be e15f 8d3e
000001f0: 1199 ad3e 9f84 4dbe 4301 d03e 5a08 093e
00000200: 8cc3 c73d 7771 16be 8d13 5b3c 40d5 843c
00000210: 0a9c f4bd 1647 053e 96ff 9fbe 4901 85be
00000220: bd5b 88be f8b9 2fbe 302c 0ebf 97ac c13e
00000230: b947 163e 6cbe a23d e4ea bc3e 58bc f93e
00000240: af2f d93e 380d 6c3e f78e 44be 3f6d dbbe
00000250: b0e9 e7be d848 2abe 9472 b43e 4bdb 2f3e
00000260: 72e5 abbe 41ad 1f3e 141b 1abe baf3 c0be
00000270: c69f 803c f08f 82be 1816 95bd 6f63 953e
00000280: 777a a6be bfda a23e 628d 9cbe 44cd ed3e
00000290: 4543 783e 94ae 8fbd 789f 87be f4e3 65bd
000002a0: e914 ca3e 9cd3 ff3d f116 68be 74f4 c93e
000002b0: f5b5 85be ac64 6f3e 7b67 c93e 1019 343e
000002c0: 1975 81be dc6b f93e 9962 7cbe 947e 18bc
000002d0: 9616 e23e b8cd 013f 407c e9be ec16 05be
000002e0: 961f e43e 7b44 2e3e e36c 203e fb85 073e
000002f0: eccd af3e b2ba 90be 0087 99bd a78a 71be
00000300: e018 373d cbcc ddbd c7a3 40bd f44c 203d
00000310: 7948 8a3d 65ed 9d3e 26e9 9ebd 032a 61be
00000320: 86cf e23d e701 cdbe efff f93e 33c1 0d3e
00000330: 37fa 253e 976e e6bd 82c6 e5be 6e20 8b3e
00000340: 0d0d 063e bea6 c23e c864 b43d 48fd e5bc
00000350: 9bec dbbd 5fe3 aabc d9f5 6ebe 221c b93e
00000360: f315 a43e 3875 513e aa6a 92bc 11cb 86be
00000370: 4613 b2be 3b2f 7f3e 86f0 223e 10ee 98be
00000380: 081e 60be 82f8 14be c712 dc3e 519a 3f3e
00000390: c67e 4a3e a86d 6a3e bf3c eabe 6cbd d2bd
000003a0: 3177 88bd f58c d83e 7c45 8dbe 52d3 2cbd
000003b0: c801 9cbc 88a8 7e3e a05b 49be 2954 103f
000003c0: 9e0e cf3c b2ee 743e 4b0e c83e 5bc2 a73e
000003d0: e6b5 5f3b 8b8f 53be 4d42 d7be 7224 623e
000003e0: d879 833e c0f5 32be 7c80 1b3e ca36 44be
000003f0: 7c97 3cbe b33a 3ebe 18cf d5bd d0ab ee3d
-0.15650454 -0.7538884 -0.6699046 0.22611333 0.4643813 0.41430712 -0.13736242 -0.60965544
0.76493245 -0.20093939 -0.21679924 0.11095395 0.10808522 0.06772454 -0.7023844 0.34111664
-0.12721777 0.32480538 0.19620767 0.220589 0.46083274 -0.39113548 0.45221043 -0.5054729
-0.12172693 0.5212142 -0.65542865 0.18534632 0.7829107 -0.012748575 0.29874724 -0.054378632
-0.081752576 0.5813074 -0.47272825 0.63361526 -0.6038537 0.23090565 -0.45768613 0.4715107
-0.7153462 -0.5984484 -0.27836946 0.040853105 -0.07542003 0.3170058 -0.4114898 0.62698734
-0.61881196 -0.61233705 0.3545483 0.20945019 0.014599738 -0.5686118 -0.34514305 0.61788625
0.62080544 0.48649222 -0.08873257 0.60696137 0.17840216 0.40060112 0.29329148 -0.40816516
0.20932502 -0.0043852916 -0.16036761 0.41152814 0.15941481 -0.047240816 0.24930489 -0.339937
-0.085274465 -0.11437633 -0.4862638 -0.25748393 -0.35465857 0.19667391 0.03651739 0.27547336
-0.1777587 -0.2675352 -0.18512744 0.32393888 0.2659121 0.3260303 -0.33406675 0.21569888
0.12573805 0.35425133 0.34691602 -0.34922922 0.12409732 -0.3900851 -0.1261869 0.2811949
0.12859257 -0.025809862 -0.1483369 0.07493196 0.11401128 -0.14619625 -0.26348278 -0.17668763
-0.31916496 -0.019823208 0.31772763 0.083775535 0.114010565 0.4211271 -0.07963603 0.016576516
-0.2126117 0.013469755 0.20385128 -0.09424436 0.2229556 -0.166273 0.007322771 0.12771931
-0.16987926 -0.24250431 -0.25377652 0.27612212 0.33905843 -0.20070122 0.40625963 0.13382092
0.097540945 -0.14691721 0.0133713605 0.016214967 -0.119438246 0.13015398 -0.31249684 -0.25977543
-0.2663249 -0.17160785 -0.55536175 0.37826988 0.14675798 0.07946476 0.36897957 0.48776507
0.42419192 0.23051918 -0.19195162 -0.42856786 -0.45295477 -0.1662935 0.35243666 0.17173497
-0.3357349 0.15593435 -0.15049392 -0.3768595 0.015701186 -0.2550044 -0.07279605 0.29177424
-0.32515308 0.31807515 -0.30576617 0.46445668 0.24244411 -0.0701572 -0.26488853 -0.056125596
0.39469078 0.12491533 -0.22665001 0.39444315 -0.26115385 0.23378247 0.39336762 0.17587686
-0.2528465 0.48715103 -0.24646987 -0.009307522 0.44157857 0.50704527 -0.45602608 -0.12997025
0.44555348 0.1701831 0.15666537 0.13234703 0.34336793 -0.28267437 -0.07496452 -0.23588048
0.044701457 -0.10830077 -0.04703119 0.03913589 0.06752104 0.3084518 -0.07759313 -0.21988682
0.11074738 -0.40040514 0.48828074 0.13843231 0.1620873 -0.11251562 -0.44878012 0.2717318
0.13090916 0.3801784 0.08808285 -0.028074875 -0.10738488 -0.020860372 -0.23335971 0.36154276
0.32047996 0.20454872 -0.017873127 -0.26326802 -0.3478033 0.2492036 0.15912065 -0.29869127
-0.21886456 -0.14547923 0.42983076 0.18711211 0.19774923 0.22893393 -0.4574947 -0.102900356
-0.06663359 0.42295042 -0.27592075 -0.04219372 -0.019043818 0.24868977 -0.19663858 0.5637842
0.025275525 0.2391918 0.39073405 0.3276547 0.003413552 -0.20660226 -0.4204277 0.22084215
0.25678897 -0.17476559 0.15185732 -0.19161525 -0.18417162 -0.1857708 -0.104398906 0.116538644

arith.constant3 f4 [64, 64]
00000000: 50be eb3e fd7a 62bf d14e 08bf a159 e7be
00000010: 90ce 453f 0ad9 f1be 5c27 10bf 51a3 5f3e
00000020: adf7 4bbe 970c 3c3f 5c85 203e cfbc 6b3f
00000030: 8ac4 e7be 3b6c 11bf cc01 c93e 8a18 3cbf
00000040: 8151 b7be 9abe 6a3e 0673 e8b8 3e72 f03e
00000050: 31b0 393e 0e78 173f 087b 8dbd a61d 2d3f
00000060: b25d 58bf 4d47 133f d863 c43e 8baf 4f3e
00000070: b362 7c3e 1cb7 e0bd e010 3a3e e917 ecbe
00000080: 45b0 703e fa95 16be 1eac c8be c226 313e
00000090: ff67 0dbf 1f2a 2b3f 96c4 583f b664 ef3e
000000a0: 0d21 253f 2daa 653f 8c01 4f3f 570d 64bf
000000b0: 9d56 a5be d898 16bf fbee 6dbe 41c3 5d3f
000000c0: 0936 29bf 4b38 f7be 2c18 f23c 9c2f 98bc
000000d0: 0215 91be d9e5 083f aec6 b33e 1919 07bf
000000e0: 6b48 e43d 0164 ca3e 0834 6dbd 3fbf ee3d
000000f0: 1d49 d2be 134e a5be eb07 d73d f82c a4bd
00000100: eedc b23e c2d4 973e 9f29 c23e 2104 d13e
00000110: 91bb 2ebf 5784 b33e 0eb7 adbe 4fcc f73e
00000120: 2e63 1bbf 6f6b ebbe e87a de3e 3517 4ebc
00000130: 119d d8be 5623 e0be 9452 1bbe 3a97 1b3d
00000140: 3236 d9be 6989 e9be 4d02 013f ca0f 0fbe
00000150: 1065 a13e 2350 7f3e 509b ddbd a1a9 103f
00000160: 95e8 233e 7113 43be d9e1 22bf b33c f23e
00000170: 5fa6 1bbf 3278 83be 2d33 f53e 0e1a 733e
00000180: 83c2 0dbf 6fb2 d03e 5bdb 0cbe f21b 54be
00000190: b787 6abd 18f4 47be 5e05 18bd c98e 163f
000001a0: 85d6 433e 1d01 1ebf ebf1 1f3f 0398 e83e
000001b0: 0f0c a2be 77f9 273f 8880 f73e 42cc d5be
000001c0: 523a d63e 7230 71be 0e05 003f f4c1 0fbf
000001d0: 9065 073f 3d74 f8be 7a3d a4be 0af1 57bd
000001e0: 7643 8ebd 0206 37be 1b98 da3e b739 e5be
000001f0: 2f5b 183f 03b2 24bf 6757 c63d 13fd 19be
00000200: e162 5abf 6b5a 47bf 38dd 573f 7c9e 533e
00000210: 89d4 413f bfa3 913e 369c 6d3f 87e7 3bbf
00000220: 4434 80bf 3c2c 723f 8623 95bf db2f 10bf
00000230: a42a babe b859 f6be 091f 293d 8ce7 5d3e
00000240: 0b91 a0be 4799 a43e 7d11 25bf 0921 a43e
00000250: 015c 52be 7ee2 25bf 812f b0be 3540 ef3e
00000260: 3979 7abe dd79 293f 29ab 2abf dc57 3abf
00000270: 2c74 243f c53a dcbd bde5 163d 5364 413e
00000280: cea8 cabe a9ee 96bf 92d6 1c3f a664 1b3e
00000290: e3e6 a6be 8f03 bf3c 708c 8e3f 145c 4b3f
000002a0: 08f4 303f d743 3ebf d033 193f 44ee 72be
000002b0: 7469 113f 41f7 52bf bf9d 943e e419 3bbf
000002c0: 1b0c a03d a18b 84bf fae6 25bf fbff 483f
000002d0: 7a5c 6a3f f9ef 1dbf bcbe 88bf 4be8 393f
000002e0: 1e6b 44bd 85a4 21bf 190e 86bd 3ccc 90bf
000002f0: 0186 453e 6680 703f 8095 7e3f e616 843c
00000300: f8c1 303f c669 853f 0df6 4fbe e6f0 c63e
00000310: adb4 7abf c3e6 1bbe 2010 1a3f 499d 4c3e
00000320: b3b6 b0be 23d4 303f 71ad 35bf 6111 96bf
00000330: cfb0 e83d d21d 8b3f 8a2f 48be 1d7b 103f
00000340: 7129 72bf af96 1f3f a39b 403f d050 d6be
00000350: c6bb 8ebf cc6d 7e3f f705 783f b87f 0ebe
00000360: 97b6 b0be c1db 853f bc1a 8abe 86d9 0d3f
00000370: 1758 d1be cd40 803f 3092 8abf 987b 1c3f
00000380: 357e 39bf 4fb6 473f f324 47bf 1f03 8b3f
00000390: 6cc5 24be 5570 713f 9fa0 1abf 9896 c6bc
000003a0: 6b28 4f3e 7148 7abe 1f86 aebf ecb4 6f3f
000003b0: d59f 943e 9977 e93e 0db8 3bbe a6f0 4a3f
000003c0: 41d5 7a3f 05a1 193f fe28 c4be c5d7 513f
000003d0: 758f 873e 860f 533e 317e 963e 8b51 07be
000003e0: 154f 2cbe 172a 23bf 6ab6 8e3f f219 aebb
000003f0: 9935 14be bf5d 8d3f 00fd 053f 2f57 163f
0.46043634 -0.88468915 -0.53245264 -0.4518557 0.77268314 -0.472359 -0.5631006 0.21839644
-0.199187 0.7345671 0.15675873 0.92084974 -0.45267135 -0.5680577 0.39259183 -0.73474944
-0.3580437 0.22924271 -0.00011084047 0.4696216 0.18133618 0.59167564 -0.06908232 0.67623365
-0.8451797 0.5753067 0.38357425 0.20281808 0.24647026 -0.10972425 0.181705 -0.46111992
0.23504741 -0.14705649 -0.39193815 0.17299941 -0.5523681 0.66861147 0.84674966 0.46756524
0.64503556 0.8971279 0.80861735 -0.89082855 -0.32292643 -0.5882697 -0.23235695 0.8662606
-0.66098076 -0.48285136 0.029552542 -0.01857739 -0.2833634 0.5347572 0.35112518 -0.5277267
0.11146625 0.39529422 -0.05791095 0.11657571 -0.41071406 -0.32286128 0.10499557 -0.080163896
0.3493418 0.2965451 0.3792238 0.40823463 -0.68254954 0.35061905 -0.33928722 0.48398063
-0.6069821 -0.45980403 0.43453145 -0.012578775 -0.42307332 -0.4377696 -0.1516822 0.037986018
-0.4242416 -0.45612648 0.50394136 -0.13970867 0.31522417 0.24932913 -0.10820639 0.56508833
0.16006692 -0.19050385 -0.63625866 0.47311935 -0.6080074 -0.2567764 0.47890607 0.23740408
-0.55374926 0.40761134 -0.13755552 -0.20713785 -0.057258334 -0.19526708 -0.037114494 0.5881162
0.19124801 -0.6172045 0.6247851 0.45428476 -0.31649825 0.6561503 0.4834025 -0.417574
0.4184137 -0.23553637 0.5000771 -0.56155324 0.5288935 -0.48526183 -0.32078153 -0.052720107
-0.06946461 -0.17873386 0.42694172 -0.44770595 0.59514135 -0.64334124 0.096846394 -0.15037946
-0.8530713 -0.7787234 0.8432193 0.20665926 0.7571493 0.2844524 0.92816484 -0.7340016
-1.001595 0.94598746 -1.1651466 -0.5632302 -0.36360657 -0.48115325 0.041289363 0.2167036
-0.3136066 0.3214819 -0.6447981 0.32056454 -0.20542909 -0.64798725 -0.34411243 0.46728674
-0.24460305 0.66201574 -0.6666742 -0.7279031 0.64239764 -0.10753397 0.03684019 0.18885927
-0.39581913 -1.1791583 0.6126491 0.15175113 -0.32598028 0.023317127 1.1136608 0.79437375
0.6912236 -0.74322265 0.59844685 -0.23723704 0.56801534 -0.8240853 0.290266 -0.7308638
0.07814809 -1.0355111 -0.6480557 0.78515595 0.9154736 -0.61694294 -1.0683208 0.72620076
-0.047953717 -0.6314166 -0.06545658 -1.1312327 0.192894 0.9394592 0.9944687 0.0161242
0.6904597 1.0422904 -0.20308705 0.38855666 -0.9793194 -0.15224747 0.60180855 0.19981875
-0.34514388 0.69073695 -0.70967776 -1.1724054 0.113618486 1.0868475 -0.19549385 0.56437856
-0.94594485 0.623393 0.7523748 -0.4185853 -1.1151054 0.99386287 0.968841 -0.13915908
-0.34514305 1.0457689 -0.26973522 0.5541004 -0.4088752 1.0019776 -1.0825863 0.6112609
-0.724582 0.78012556 -0.77790755 1.0860327 -0.16090935 0.9431203 -0.6040134 -0.02424173
0.20230262 -0.24441697 -1.363468 0.9363544 0.29028192 0.45599058 -0.18331929 0.7927345
0.9798165 0.6001132 -0.38312525 0.81969863 0.26476637 0.2061139 0.2939315 -0.132147
-0.16827042 -0.637361 1.1149418 -0.0053131515 -0.14473571 1.1044234 0.5233917 0.5872678

arith.constant9 f4 [15, 32]
00000000: 0086 44be 3946 bbbe 7cf0 f7bd 2b8e bebe
00000010: 2116 aebe 1cd9 f9bd 93b1 883e 3577 b7be
00000020: f94a b9be 184b cebe 16b8 c63e 74aa d53d
00000030: a4d2 7dbe c4f2 95be 2998 99be 8d2f 01be
00000040: 8ae2 833e 248f 0dbe 5569 79be 80bd 8f3c
00000050: 139b 773e 738f 983e 855b 803e 3556 263e
00000060: bec2 60bd f4d5 52be 050a 433e dc50 773e
00000070: 7bf7 80be 6d04 3b3e f4b7 1f3e 2149 9fbc
00000080: a546 bcbe 6450 b33e a247 c53c 47af c8bc
00000090: 55fd 093d 28fc 95be e227 a8be 6ac0 bfbb
000000a0: ff77 8fbe 2f08 96be 75af 94be f2b1 153c
000000b0: 5d83 d4be b0fc 83be 7fe6 a3be 7be0 923e
000000c0: ef56 cd3e 1b5d ffbd 60ef 6dbb d50b 893e
000000d0: 8a45 8a3e fd97 443e 590b 3ebe bb1e 233e
000000e0: 8319 883b 5238 aabd 8ca1 b13e 75e1 133e
000000f0: 014d b23e eb71 833e f373 c1be af76 84be
00000100: 9397 abbe a946 b9be 3f1d c2be 59f0 8abc
00000110: 262f 08be 28e2 9c3e 980b 99be 4ac5 7d3e
00000120: 0447 733e 597e 493e 359b b5be 7c6b c73e
00000130: ea0c 0a3e 074c a43e 4498 493d 035e 843e
00000140: 02d9 553e 98e2 97be 0fdd 343e bcdb 8fbe
00000150: 62be 5a3e b6db 953d 0046 473d 147e bebe
00000160: 1451 cbbd b0e8 b53e 81f5 a03e 885d 353e
00000170: 5227 83be c272 a6be ea46 6c3e c766 493e
00000180: 0895 0a3e 7fa5 c33e 886e 83bd baaa e3be
00000190: d206 10be 7098 a1be 93b5 d03d e40d 4e3e
000001a0: 9c9e 413e afa5 a6bd a30f 40be 0651 653e
000001b0: b079 a9ba c7d9 d2bd 656f b8bd 88dd 88be
000001c0: 1917 9ebe 963d 1dbe bb35 b4be c1e7 1fbe
000001d0: f0aa 1f3e 9f34 8e3e 371f 06bc 261b bebd
000001e0: 65a8 cc3a 9fac aebe 8b9c d2be 0668 81be
000001f0: d576 86bd abd6 f63d a274 c63e aab9 2a3c
00000200: 8fcb b33e 42d5 2c3e 37b7 80be 0495 3d3c
00000210: ee3b b7be 18b3 813e 3284 b6be a09f bebe
00000220: 27a4 d13e 90ad 6a3e 96b3 43be f875 9ebe
00000230: 669d bd3d af38 a0bd 76a6 96be 7a19 ad3e
00000240: fac6 b2be d426 373e 083d e5bd e741 9c3e
00000250: 73ce d0bd e4ae 893d 0888 703e 36e0 b73e
00000260: 8ebd 643e 81c3 583d dcac 833e c340 acbe
00000270: 7cc7 12be 8ada aebe ed2c c7be df19 e6bd
00000280: 47be b2be 31a2 9abe 9541 58be ec60 d33d
00000290: 2570 99bd 27e5 d3be d64e 7fbe 425d 4bbd
000002a0: 7b6f 61be b048 9a3d 8ddb 1bbe b98b dcbd
000002b0: 4750 d0be 3beb cdbe f2a2 7c3e a857 b43e
000002c0: be8b 31be 2b8b 6b3d 2208 3e3e d057 803e
000002d0: 3c06 8e3d 34d5 9dbe 5e8d 7b3e e779 b83e
000002e0: dce0 ca3d edb4 8f3e b5f6 413d 1a76 b63e
000002f0: aa12 88be 5b09 a2be c3ca 92be d50f cb3e
00000300: b267 893e 1289 13be 6b36 03be e77e 3ebd
00000310: 113e 78be f1f3 903e 46fa 313e 2505 2ebd
00000320: abd5 cebe 650e 2e3e 5ef1 2cbe 3896 51be
00000330: 9840 7c3e a229 a2be 7922 1d3d 4791 1abe
00000340: aea1 0bbe 9b73 293e 1148 80be 9946 1dbc
00000350: 5b10 843e 688f 1a3e 3eea 563d 443b 77be
00000360: 120c febc 4fc2 793e 02e3 a43d 7bec ab3e
00000370: 4287 9cbe fa54 3b3e d3f2 96be fda8 ab3e
00000380: 7d68 50be 5c5c 483e d97b 78be a823 bb3e
00000390: a81d a4be d7f9 cebd 9639 663d a3ce b93d
000003a0: ed87 873e 9de6 6e3e 2f91 3cbd af6a 693e
000003b0: f1eb e7be 1740 793e e716 84be e694 5cbe
000003c0: 5036 dc3a 5f6e bdbd c395 3abe ce69 203e
000003d0: 563d 863e 4c99 b4be 4204 65be b4e3 10be
000003e0: 3d68 3b3e 53fd 853e 738e bbbe 5b66 943e
000003f0: 384a 5c3e 4288 ce3e 9cad bebe 3959 bd3d
-0.19191742 -0.36577013 -0.12106416 -0.3721784 -0.34001258 -0.121996135 0.26697978 -0.35833135
-0.36190012 -0.40291667 0.3881232 0.10432902 -0.24787384 -0.29286778 -0.299989 -0.12615795
0.25758773 -0.13824135 -0.24356587 0.017546415 0.2418025 0.29796943 0.25069824 0.16243823
-0.05487322 -0.20589429 0.19046791 0.24151939 -0.25188813 0.18263407 0.15597516 -0.01944405
-0.36772648 0.3502227 0.024082009 -0.024497641 0.033688862 -0.29293942 -0.32842928 -0.005851795
-0.28021237 -0.2930312 -0.29040113 0.009136664 -0.41506472 -0.25778723 -0.32011792 0.2868689
0.40105388 -0.1246893 -0.0036306009 0.2676684 0.2700618 0.19198604 -0.18559016 0.15929691
0.004153432 -0.083115235 0.34693563 0.14441474 0.34824374 0.2567285 -0.37783775 -0.25871798
-0.3351408 -0.36186722 -0.37912938 -0.01696031 -0.13299236 0.30641294 -0.29891658 0.24782291
0.23757559 0.19677104 -0.35469976 0.38949192 0.13481489 0.32089254 0.049217477 0.25852975
0.20883563 -0.29665065 0.17662452 -0.28097332 0.21361688 0.07317297 0.04865074 -0.37205565
-0.09927574 0.3552909 0.31437305 0.1771146 -0.25615937 -0.32509428 0.23073927 0.19668113
0.13533413 0.382122 -0.064175665 -0.44466192 -0.14065102 -0.31561613 0.101908825 0.20122486
0.18908161 -0.081370704 -0.18755965 0.22394189 -0.0012929942 -0.10295444 -0.09005622 -0.26731515
-0.30876997 -0.15355524 -0.35197243 -0.15615751 0.15592551 0.27774522 -0.008186153 -0.09282522
0.001561415 -0.34116074 -0.41135058 -0.25274676 -0.06565634 0.120526634 0.3876086 0.010420242
0.3511624 0.16878226 -0.25139782 0.011571173 -0.3578791 0.2533195 -0.35647732 -0.3723116
0.4094555 0.22917771 -0.19111475 -0.30949378 0.09258537 -0.078233115 -0.29423875 0.338085
-0.34917432 0.17885906 -0.111932814 0.3051903 -0.10195627 0.06722811 0.23489392 0.35913247
0.22337934 0.052920822 0.2571782 -0.3364316 -0.1433391 -0.34151107 -0.38901463 -0.11235403
-0.34910795 -0.30201867 -0.21118768 0.10321221 -0.07492093 -0.41385767 -0.24932417 -0.049649484
-0.22015183 0.07533395 -0.1522047 -0.107688375 -0.40686247 -0.4021853 0.24671534 0.35223126
-0.17338464 0.057505768 0.1855779 0.25066996 0.06934783 -0.30826724 0.24565646 0.36030504
0.0990617 0.28067723 0.04735442 0.3563698 -0.2657674 -0.31647763 -0.2867032 0.39660516
0.26836926 -0.14407757 -0.12813728 -0.046507742 -0.24242426 0.28311113 0.17380628 -0.042485375
-0.4039739 0.16997679 -0.1688895 -0.2046746 0.24634016 -0.31672388 0.038362954 -0.15094481
-0.13635895 0.16548006 -0.25054982 -0.009599351 0.25793728 0.15093768 0.052469485 -0.24143702
-0.031011615 0.24390529 0.08051111 0.33578858 -0.30571944 0.18294135 -0.29482135 0.33527365
-0.20352359 0.19566482 -0.24265994 0.3655064 -0.32053876 -0.10106247 0.056207262 0.09072616
0.2647089 0.2333016 -0.046036895 0.22794603 -0.45297197 0.24340855 -0.25798723 -0.21541175
0.0016800854 -0.09249567 -0.18221192 0.15665361 0.2621867 -0.35273206 -0.22364905 -0.14149362
0.18301482 0.26169834 -0.36632118 0.2898434 0.21512687 0.4033833 -0.37241828 0.092455335

arith.constant10 f4 [192, 882]
00000000: 9f8f fdac 23bb 483b 29d1 a23b a697 9bba
00000010: 4013 cc3b f9d4 5c3c cd5f c53b 942c ea3b
00000020: b8fd 08bc fa34 363c fdd1 233b 272f 073c
00000030: 3cc1 14ba 1c09 d6ba 60a6 b7ba 8ba2 c73b
00000040: 5594 323c b796 15ba aeae 863a 928b a2ba
00000050: be71 aa3a 88f9 363b 74c8 85ac 11e4 9cba
00000060: 4470 8c3b 9287 243b 2fb7 15bc f3af 9bba
00000070: 84d0 a93b 8ae5 8d39 fcd0 b93b 0902 083a
00000080: aa19 5f3b 9d6b 1cbb 9ac1 8dbb 5e65 693a
00000090: af09 db39 0730 90ba cdca b0bb dc8e 403a
000000a0: 9a07 0fbb 9f44 813b 7e1a 183b 8065 843a
000000b0: 9483 fbb6 d8f0 043a cd92 7f3b 5b95 07bc
000000c0: 4baa 92bb dc7e a23b ed14 33bb 4705 173b
000000d0: 3b16 daba b456 ca3b bf9b dc3a 2c35 dcba
000000e0: 7bbd 0e3c 0094 803b f3f6 e03b 8652 b939
000000f0: 7617 363b e069 99ba 2d2b d23b af9b 1a3b
00000100: ae7d 893b 292e 923a e78b 7b33 52ff 963b
00000110: d843 9b3b 3a24 26bc 0b21 f73b 8f86 f3bb
00000120: 34e7 edbb 3c5e 9d3a 9bb7 143c 9c80 9a3b
00000130: c0d4 27bc 5d9f 94ba 965d 66bb e637 4d3c
00000140: d2a0 acbb fc68 283b ea78 c8bb 6caa 803b
00000150: 51fa ea3b 50f2 243b e155 953b 3875 d73b
00000160: 6cfb 76ae fccf 253c 3704 643b ab84 853b
00000170: e1d5 e8ba 12b5 6cbb e51f 91b9 b215 5d3b
00000180: 1eb7 773b 622f 8abb 7dbc 1b3a 4ca6 b1bb
00000190: 3899 3e3b 1b0d d5bb d935 863b e8cf 7c3a
000001a0: 692a 50ba 4a34 6abc c13b 44bb a44b 5abc
000001b0: f427 e9bb eb9a cd3b fa2c baaf 592f 11bc
000001c0: e48a 503b 657c f6ba b90e 68ba 9e17 ad3b
000001d0: f20d d7ba 2f73 68bc 3425 05ba 5f81 98bb
000001e0: 7585 66bb 3782 573b 346b 1c3b 3e01 8aba
000001f0: cccf 8abb 4c5a 513b 7ff1 173c e634 233a
00000200: b517 8eba b514 f7bb b931 39bb 5991 66b9
00000210: 43b2 5d35 bdf5 d1bb 1975 c2bb 6432 be3b
00000220: f21d 3a3b ec46 5e3b c85f 0bb9 e7e1 1b3b
00000230: 180c d83b 94c2 99b7 cea7 073c e7f8 253b
00000240: beb6 e8bb e087 ca3b c6f8 623b bc60 903b
00000250: 74b9 ac3b f486 a23b 5126 fa3b 79f9 963b
00000260: 0971 08bc e4d4 0d3b 374c 1db7 cb8d 2d3b
00000270: 2180 b439 95ed ae3b dd2f 093b ed09 713b
00000280: 7338 75b8 c439 0fbc 6c7a f33b b146 20ba
00000290: 0627 e8bb 9770 ad3b 446d ea3b 6db6 63ba
000002a0: 35b4 19bc 6753 1a3c 832c 873b 61a9 8fbb
000002b0: 002a b1bb 2440 2abb cbf9 c7ba bd65 f73b
000002c0: 2d02 0f34 f9c6 3bbc ac33 a2bc 5f96 733b
000002d0: e153 f53b 52d9 b1ba 2979 32bc 92db 9ebb
000002e0: 37f3 e8bb 6f25 42b9 997f 89bb 182a e7bb
000002f0: 5027 2a3b 8f30 f03b 6a5c 39ba 0683 35ba
00000300: 637a 1c3c a0c5 52bb 9082 5fbb 54a1 bd3b
00000310: 4738 15bb 2454 f83a c541 5132 b083 8d3b
00000320: 8dbf d3bb ed35 ce3b 10f4 13bb 27b6 bb3b
00000330: d44f 41ba 7b59 ac3a 71f4 b3ba ecdc 213c
00000340: 95e5 853b 1f1a 1e39 4494 203b 6d88 0eba
00000350: 6522 823b 3378 003c 3268 6538 ddbd 193c
00000360: 9703 d13b 2d15 143b f5f7 1d3b d6cc f03a
00000370: 7212 2d39 5b97 9b3b 6222 1d3b 30bc d0bb
00000380: a3d3 cdba 984d 123c 744d 1d3a 39c7 e2ba
00000390: bd27 1d3b d63f 3bba 216e cc3b a429 013c
000003a0: 8e50 583b 126b c83b 5663 b63b 1a13 5d3b
000003b0: 7cb2 54bb 911f fc3a 72d2 ee3a eb9a 3d3c
000003c0: e145 2fbb f391 ba39 5e3f 5bae 1c64 4e3b
000003d0: de8f e93a c638 2cbb dcb3 a93a 90d7 eb3b
000003e0: ef0b afbb 3615 c83b 094f a2bb 51f6 67bb
000003f0: 03eb 1f38 e445 37bb d2f0 8038 6d2b 9e3b
-7.2066376e-12 0.003062912 0.0049687815 -0.0011870756 0.0062278807 0.013478511 0.0060233832 0.0071464274
-0.0083612725 0.011121029 0.002499699 0.008250988 -0.0005674546 -0.0016329619 -0.0014011376 0.0060923747
0.010899623 -0.0005706357 0.0010275447 -0.0012401214 0.0013003869 0.0027919728 -3.802342e-12 -0.0011969825
0.004285844 0.002510522 -0.009137913 -0.0011877998 0.0051823277 0.00027064636 0.005670665 0.00051882915
0.0034042397 -0.0023867853 -0.0043260576 0.00089033495 0.0004177815 -0.0011000641 -0.0053952695 0.00073455065
-0.00218246 0.003944948 0.002320915 0.001010105 -7.4957006e-06 0.0005071289 0.0038997412 -0.008275355
-0.004475867 0.0049589705 -0.0027325705 0.0023043917 -0.0016638705 0.0061748866 0.0016831084 -0.0016800514
0.008712168 0.003923893 0.006865376 0.00035347434 0.002778498 -0.0011704527 0.0064138384 0.002359133
0.0041958904 0.0011152673 5.8567732e-08 0.0046080733 0.004738312 -0.010140473 0.007541781 -0.007431812
-0.0072602276 0.0012006233 0.009076978 0.0047150385 -0.010243595 -0.0011338998 -0.0035150996 0.012525534
-0.0052681947 0.0025697341 -0.0061179297 0.003926566 0.0071709533 0.0025168844 0.0045573567 0.006575253
-5.615723e-11 0.010120388 0.0034792551 0.004074653 -0.0017763936 -0.0036118669 -0.00027680318 0.0033734855
0.0037798355 -0.0042170743 0.00059408677 -0.0054214355 0.0029083025 -0.0065018064 0.0040957746 0.00096440176
-0.000794089 -0.014294693 -0.0029942843 -0.013323698 -0.0071153585 0.006274571 -3.386516e-10 -0.008861386
0.0031821067 -0.0018805383 -0.00088522915 0.0052823564 -0.0016407354 -0.014187618 -0.0005079091 -0.004654094
-0.0035174761 0.003288401 0.002386761 -0.0010528935 -0.004236197 0.003194469 0.009273886 0.0006225839
-0.0010840805 -0.0075403103 -0.0028258397 -0.00021988655 8.258832e-07 -0.006407468 -0.0059343693 0.005804347
0.0028399196 0.0033916784 -0.00013291754 0.0023785771 0.0065932386 -1.8329629e-05 0.008279754 0.002532536
-0.0071018627 0.0061807483 0.0034633144 0.004406063 0.005271131 0.0049599353 0.007633962 0.004607376
-0.008327731 0.0021641785 -9.375674e-06 0.002648222 0.0003442774 0.0053383806 0.002093307 0.0036779598
-5.8465124e-05 -0.0087418 0.0074303653 -0.00061140495 -0.00708473 0.005292963 0.0071541388 -0.00086865464
-0.009381344 0.009419299 0.0041251793 -0.004384205 -0.005406618 -0.0025978172 -0.0015256939 0.00754997
1.3318704e-07 -0.011461013 -0.01980003 0.0037168486 0.007486806 -0.0013568795 -0.010893145 -0.004847952
-0.0071090716 -0.00018515227 -0.004196119 -0.0070545785 0.0025963373 0.0073300074 -0.0007070961 -0.0006924126
0.009550664 -0.003216125 -0.003410492 0.005787054 -0.002276914 0.0018945974 1.2180355e-08 0.004318677
-0.0064620436 0.0062930495 -0.0022575893 0.0057285014 -0.0007374261 0.0013149226 -0.0013729465 0.009879332
0.004086206 0.00015077785 0.0024502436 -0.0005437199 0.0039713853 0.007841158 5.4694894e-05 0.009383646
0.006378602 0.002259563 0.0024104093 0.0018371593 0.00016505437 0.0047482676 0.0023976793 -0.00637009
-0.0015703331 0.008929633 0.0006000616 -0.0017301805 0.0023979985 -0.0007142996 0.0062387143 0.007883463
0.0033006999 0.0061162794 0.005566041 0.003373331 -0.0032455018 0.0019235482 0.0018220677 0.01157258
-0.0026744532 0.00035585425 -4.9851116e-11 0.0031492775 0.0017819365 -0.0026278957 0.0012947279 0.007197328
-0.0053419988 0.006106044 -0.0049532694 -0.0035394619 3.8127426e-05 -0.0027965242 6.148372e-05 0.004826954

arith.constant11 f4 [192, 64]
00000000: e12b 11bb 59bd 96ba 06da 65bd a46b db3b
00000010: 8cc3 a0bb 117c 713b c1e6 26bb b9f1 7c3c
00000020: 4f11 85bb d905 fcbc cade 8abc 4fe7 02bc
00000030: 73a6 3f3c f2f4 3ebc 1f42 9a3b 95ef 883a
00000040: f1a0 9b3c 7570 1dbd 6d93 ae3b 9973 98bc
00000050: 434a cd3b e021 b4bc fcdc 403d edbf d23b
00000060: 88f3 3bbb 03be 973b d27a 5c3d 2a9b 63bd
00000070: 7bfd a43c 69c2 f73b a63d 943c bc58 163d
00000080: d4ac 0c3b 7378 93bb 0b44 883b fc9c 16bd
00000090: 1341 85bb 1a5f 7d3c 65f3 693a 78e3 a43c
000000a0: 6793 2fbc e62e 45bc dbc8 a9bd ac86 4abc
000000b0: 2546 233d bdcf 21bc 231c aabc 1947 8e3d
000000c0: 73fc 903c 68b9 45bc 6d9a 41bd 1d92 29bc
000000d0: a677 943c 14db 7bba 9a8b bdbb aee8 96bb
000000e0: 4794 ff3a 36e8 8d3b 8526 15bc 6f0e 6f3c
000000f0: 1eba 843c 2e6b 47bd 1190 e1bc 4160 50bb
00000100: 204b e3bb 6392 a7bc 664e a13c ddab 96ba
00000110: be1a 6fbd d7df 413d 2958 a43b 15ea fbbc
00000120: a45a 8ebc df41 65bc 5e27 bf3c 26d2 bf3c
00000130: 47f3 aabd 4de6 d53c 211a ebbd dbf8 223d
00000140: a20a 8b3c 2503 693b 6306 3bbd 406e 35bd
00000150: a088 2bbc 8225 b3bb ba2d 34bb cc24 87bd
00000160: 67f4 a73b db02 bcbd 431c bbbc 19ff 70bd
00000170: 08b4 e0bc e231 15bb 0ff7 823d 1b03 b5bc
00000180: af65 0a3d 6fef 8f3c bb9c 03bc ca25 523d
00000190: cb14 423c 717d a13c 51ca 3bbd 501b c03b
000001a0: 02d0 59bd 7492 a0bb 9079 313d 0f60 b1bc
000001b0: 7089 143d e6a4 603d 92bd edbb 6c40 71bd
000001c0: ae5b 2cbd 6a78 12bd b518 673c 3c04 e3b8
000001d0: 43f0 583d 3e2c 28bd d947 493d 11b9 7d3c
000001e0: a213 9d3d 901c 89bd 83ea b6b9 0b59 ff3b
000001f0: 142b 84bd 5632 8f3c a5a8 e9bc ced5 373d
00000200: 8608 4d3a d2b1 28bc 0cf0 3b3c 842a 52bc
00000210: 7477 d1ba a8b6 033c 7ea8 e4bc 8657 d2bb
00000220: 11b6 eebb a7dd 76bc 4886 343d 8124 033b
00000230: 6072 3e3d aad0 84bc d5d7 ab3c 40ec 59b9
00000240: 82de 3e3c f707 e4bc 9a7e da3a 6dfe a0bc
00000250: 59fb 373d e815 e13b 0a66 fd3c 613c 34bc
00000260: 894a 643c 6ef5 d1bb ab42 2aba f3a0 3bbb
00000270: fc1d 9d3c 41a9 01ba 2a51 02bb 8ac9 c43b
00000280: 2092 2c3c be6e 233d a0e4 d83c 7bfa a2b9
00000290: 73ab 93bb 79f8 3a3c e5ab ad3c 49a9 d53c
000002a0: 9196 113c 37a1 0b3d fdf0 a73c 963a 84ba
000002b0: a9ba 25bd de95 d4ba 2dc0 f7bc b6a1 533a
000002c0: 4446 6bbb ed5f eb3c 1ca2 0dbc 28bd 793c
000002d0: d80b 2abc dfbb 48ba 8b78 883c d5e9 573c
000002e0: 0a91 3fbc 75a9 793a c4da a23c d362 68bb
000002f0: 025e 463c e2db 4ebc ec10 8e3c b8b2 91ba
00000300: 7e7b 66bc de96 e7bc f2e1 c5bc 2fb8 b3bc
00000310: 933e 10bd 068f 08bd 648a 90bc 6996 873d
00000320: 2111 a23c 905a 9e3d 9081 523d fe3a 80bd
00000330: 6361 123d b9b4 03bd 84a0 c1bc 2406 8c3a
00000340: 374e 753c 8235 b6bc 8367 a83d a190 a43c
00000350: 610a da3c d3c8 06bd 4bdf d03c a8fe 803b
00000360: b493 febc 2d12 21bd d95c 8bbd b7a2 57bd
00000370: 0fa3 5f3c 05c8 f0bc 28d9 b23b 358d 15bd
00000380: c6f9 82bc f064 863b c772 4ebb 7642 a4bc
00000390: e056 77bc bbd4 c6bc bf45 c5bc 6d88 39bd
000003a0: 7077 38bc 85ba d3bc b5ce 0dbc 8029 833d
000003b0: 24e7 353c e861 83bc 27e6 2ebd 72db 8c3d
000003c0: f5d0 3e3d 69aa 883c 7f7a 433d 7f0c 83bc
000003d0: 883e 963b 45c4 06bc e4c7 b0bd c535 6bbc
000003e0: fefb 893b eb8b 3bbb 45f1 12bd d712 363c
000003f0: fac5 a73d 4a31 8dbc 7581 f1bd 501f 5ebc
-0.0022151398 -0.0011500522 -0.056116126 0.0066961814 -0.0049061235 0.003684763 -0.002546713 0.015438491
-0.0040609012 -0.030764507 -0.016951937 -0.007989719 0.011697399 -0.011655079 0.0047075893 0.0010447378
0.018997641 -0.038437326 0.005327633 -0.018609809 0.006264956 -0.02198881 0.047085747 0.0064315707
-0.0028679091 0.0046308055 0.053828068 -0.055567898 0.0201404 0.0075610173 0.018095803 0.036705717
0.0021465318 -0.0045004427 0.004158502 -0.036770806 -0.0040665953 0.0154645685 0.0008924513 0.020127997
-0.010716296 -0.012035107 -0.08290263 -0.01236121 0.039861817 -0.009876189 -0.02076537 0.069471546
0.017698502 -0.01206813 -0.047266413 -0.0103497775 0.01812346 -0.00096075353 -0.005784464 -0.0046053743
0.0019499146 0.00433066 -0.009103422 0.014590844 0.016202029 -0.0486862 -0.027534517 -0.0031795653
-0.006936446 -0.020455545 0.019690704 -0.0011495311 -0.058375113 0.04733261 0.0050153923 -0.030751267
-0.017377205 -0.013992756 0.023334201 0.023415636 -0.08347183 0.026110793 -0.11479593 0.03978811
0.016972844 0.0035554853 -0.045660388 -0.044294596 -0.010469586 -0.0054671178 -0.0027493075 -0.06598815
0.0051255706 -0.09180232 -0.022840625 -0.05883703 -0.027429596 -0.0022765328 0.06394779 -0.022096207
0.03378838 0.017570226 -0.008032973 0.05130557 0.011845778 0.019713135 -0.04584724 0.005862631
-0.053176887 -0.004900271 0.04332882 -0.02165225 0.036263883 0.05484476 -0.0072552646 -0.058899328
-0.04207962 -0.035759367 0.014105012 -0.00010824992 0.052963506 -0.041057818 0.049140785 0.015486018
0.0766976 -0.06694901 -0.0003488847 0.007792597 -0.06453529 0.017480057 -0.028522799 0.044881634
0.00078213995 -0.010296302 0.011470806 -0.012827519 -0.0015981034 0.008039154 -0.027912375 -0.006419125
-0.0072848876 -0.0150674945 0.044073373 0.0020010772 0.046495795 -0.01621278 0.02097694 -0.00020782743
0.01164973 -0.02783583 0.001666981 -0.01965257 0.04491744 0.0068690665 0.030932445 -0.011000724
0.013933786 -0.0064074313 -0.00064949197 -0.0028629869 0.019179337 -0.000494618 -0.0019884803 0.0060054706
0.010532886 0.039900534 0.026476204 -0.0003108567 -0.0045065223 0.01141178 0.02120013 0.026081698
0.0088859955 0.034089293 0.020500654 -0.0010088261 -0.040461216 -0.001621898 -0.030243004 0.0008073108
-0.0035900036 0.028732264 -0.008644607 0.015242852 -0.0103788 -0.00076573895 0.016659042 0.0131783085
-0.011692295 0.0009523847 0.019879706 -0.0035459294 0.012107374 -0.012625666 0.017342053 -0.0011115884
-0.014067529 -0.028270181 -0.02415559 -0.021938412 -0.035215925 -0.033339523 -0.017644115 0.06620485
0.019783558 0.07732117 0.05139309 -0.06261252 0.035737406 -0.032154772 -0.02363611 0.0010682982
0.014972261 -0.022242311 0.08222868 0.020088496 0.026616277 -0.032906365 0.0254971 0.0039366074
-0.03107629 -0.039323974 -0.06804819 -0.05264541 0.013649716 -0.029392252 0.005458016 -0.03651162
-0.015988242 0.004101388 -0.0031501518 -0.020051222 -0.015096396 -0.02427136 -0.02408111 -0.04529612
-0.011258945 -0.025845775 -0.00865524 0.064044 0.0111024715 -0.016037896 -0.04269996 0.06877793
0.046585996 0.01668282 0.047724243 -0.01599717 0.004585091 -0.008225505 -0.08631876 -0.014356081
0.004210948 -0.0028617333 -0.035874624 0.01111289 0.08192058 -0.017235417 -0.1179227 -0.01355727

arith.constant12 f4 [192]
00000000: 7f61 dbbc fb5d fe3c 63c6 f23c cdc1 a43b
00000010: f3ca 973b 3de3 cd3c fd14 32bd e89a c2bc
00000020: f469 1a3c 8bd2 3f3a 674b 3dbc c045 3f3c
00000030: b0b8 12bd 3c9b 413b c704 ef3b a6f6 78bc
00000040: 4b21 cd3c be10 f73b 929f 923c 64f6 e4ba
00000050: b0f9 2e3b f66d efb8 d826 a9ba 4899 3bbc
00000060: cac5 65bb 164c ce39 6ab3 393c 038c 45bc
00000070: 7f9c ab3c 039b 533c 9e1c 04bd ec95 093b
00000080: d69d 8a3c 9f10 01bd 41a5 a93a 71ae 5e3c
00000090: 1852 5a3b c3db c03c a3c4 bf3b 9b2d 5d3c
000000a0: 4f23 013d a527 d4bb a165 503c f41b 1e3b
000000b0: d27b 58bb 1167 e03a 5418 7e3b 8e02 84bb
000000c0: 773c c23c b06f 9d3a 801a b93c c4f9 1e3b
000000d0: d0bc b43c 6b0b 073d 5377 efbc f576 bb3c
000000e0: a822 f23c 92f8 5dbc d1ac dc3b 9492 88b8
000000f0: 2eb3 253b aab4 5b3a 60d1 13ba e717 f5bc
00000100: aa26 27bc eed4 df3a 5184 04bb 661a 423c
00000110: a458 e13c 0fd4 6b3c 68d0 5b3c 2d4b 563c
00000120: a1ed 0d3c 8411 9b3c 609f f53a c6be 41bc
00000130: fa09 65bc 0cd8 a33c 5b15 6c3c 2432 f03b
00000140: 3a6f 183b f538 6d3c 4934 07bb 235c 923b
00000150: bd7c c1ba bccb 05ba d894 453d 4dd9 e93c
00000160: b524 893c 253a 0abd eb9f c8bb 3c94 013b
00000170: 3461 fb3b 3a13 c43a c290 ee3c e7fa 663b
00000180: fab9 85bb 2821 933c 5a0c dc3a 7e91 df3c
00000190: 8f49 a93c 13c5 8d3b 7657 873b f1c7 b83c
000001a0: 508b a1ba c13f 2f3b 566b c73c 9a66 4e3c
000001b0: b444 9f3c 0aa5 733b 1dee a63c 99f3 453c
000001c0: 6bd8 50bc f7e0 d83c 5c69 59b9 8162 b5bb
000001d0: 60fe 0f3c 37b9 ffba b9ff 0b3c 87dd c1bc
000001e0: b3eb 26bc a549 783c 6cc0 9f3b 7f2e 5d3c
000001f0: 7bce 96bc 45da ca3b b7fc b13c f3a0 58bb
00000200: 33a9 563c 124a 593c 99e8 a9bb cd16 fabb
00000210: 73be 043c 0e0b 5b3c 9eaf 18bc edc1 a0bb
00000220: 34c3 06b7 6bbc 1c3c 1497 393c 5ed8 b2bc
00000230: cca1 a5bb a3d0 abba fd7d a13c acd7 5d3c
00000240: 0d1e e53b 215d c03b dde9 8e3a f527 3f3c
00000250: 6d45 34bc b386 ca3b f3ae 4e3c 209e 52bc
00000260: 53db 753c dfd4 e6bb 0b16 babb 2740 dfbb
00000270: 1456 a0bc 314b 013b a94f 36bb fa1d e6bb
00000280: 3c0e d53b cdb1 a7bc b2de 813c 44b5 1f3c
00000290: c7fb a6ba 1b9c dbbb 3d5e 90bc 0926 51bc
000002a0: 9216 17bc 04fa 813b d0d6 103a fbed d7bb
000002b0: 4cd8 273c b07f 9abb 5b4b 5abc e0b7 f9bb
000002c0: fc80 9abb 1d29 cb38 c1e4 c8bb 3436 e8bb
000002d0: 0eca ae3c f839 a43c 93ea 083c db8f 4dbb
000002e0: 819c 1bbc 9fde f93a 979c b2bb 4d04 f73a
000002f0: 8a6f d2bb 6d7b e33c 61f4 f2ba ffa7 e93b
-0.026779888 0.031050673 0.029635614 0.0050279857 0.0046323477 0.02513277 -0.043477047 -0.023755506
0.009424675 0.0007317445 -0.011553622 0.011674345 -0.035820663 0.002954199 0.0072942707 -0.015195524
0.02504029 0.0075398376 0.017898355 -0.001746845 0.0026699118 -0.0001141689 -0.0012905253 -0.011450119
-0.0035060518 0.0003934807 0.01133428 -0.012057307 0.020948647 0.012915376 -0.032253854 0.0020993901
0.016920965 -0.03150999 0.0012942926 0.013591395 0.0033313092 0.02354229 0.0058522983 0.013499643
0.031527814 -0.0064744526 0.012719543 0.0024125548 -0.0033032787 0.001712056 0.0038771825 -0.004028625
0.023710473 0.0012011435 0.022595644 0.0024257759 0.022062689 0.032969873 -0.029231703 0.022883872
0.029557541 -0.013548033 0.0067344685 -6.512288e-05 0.0025283801 0.0008381108 -0.0005638804 -0.029918624
-0.010202089 0.0017077008 -0.0020220468 0.011847114 0.027508087 0.01439382 0.013416387 0.013079447
0.008662612 0.01892925 0.0018739514 -0.011825269 -0.013979429 0.02000048 0.014409388 0.007330196
0.0023259656 0.014478912 -0.002063053 0.00446655 -0.0014761906 -0.0005103906 0.04823765 0.028546
0.016741136 -0.033746857 -0.0061225793 0.0019772192 0.0076714996 0.0014959343 0.02912176 0.0035244764
-0.004081008 0.017960146 0.0016788349 0.027291056 0.020664958 0.0043264716 0.004130299 0.022556277
-0.0012324844 0.002674088 0.024343174 0.012597704 0.01944194 0.0037177228 0.020377213 0.012082004
-0.012746911 0.02647446 -0.00020733982 -0.005535424 0.008788675 -0.0019510154 0.008544856 -0.023665203
-0.010188031 0.015154277 0.0048752334 0.013499855 -0.018409004 0.0061905705 0.02172695 -0.0033054918
0.013101864 0.013262289 -0.0051851985 -0.0076321126 0.008102047 0.013369335 -0.009319214 -0.0049059303
-8.032472e-06 0.009566407 0.011327524 -0.021831688 -0.005054688 -0.0013108443 0.019713396 0.01354019
0.0069921077 0.005870477 0.0010903437 0.011667241 -0.0110028805 0.006180608 0.012614953 -0.012855083
0.015005904 -0.007044419 -0.0056788973 -0.0068130675 -0.019572295 0.0019728655 -0.0027818477 -0.0070226165
0.006501941 -0.020470524 0.01585326 0.009747807 -0.001273983 -0.006701959 -0.017623061 -0.012765416
-0.00922169 0.0039665718 0.00055251736 -0.006589649 0.01024444 -0.0047149286 -0.01332363 -0.0076207966
-0.004715083 9.687452e-05 -0.006130785 -0.0070865396 0.021336582 0.020047173 0.008356708 -0.0031366262
-0.009497763 0.0019063539 -0.005450796 0.0018845886 -0.006421988 0.027768815 -0.0018535965 0.0071306224

arith.constant13 f4 [192]
00000000: 7f61 dbbc fb5d fe3c 63c6 f23c cdc1 a43b
00000010: f3ca 973b 3de3 cd3c fd14 32bd e89a c2bc
00000020: f469 1a3c 8bd2 3f3a 674b 3dbc c045 3f3c
00000030: b0b8 12bd 3c9b 413b c704 ef3b a6f6 78bc
00000040: 4b21 cd3c be10 f73b 929f 923c 64f6 e4ba
00000050: b0f9 2e3b f66d efb8 d826 a9ba 4899 3bbc
00000060: cac5 65bb 164c ce39 6ab3 393c 038c 45bc
00000070: 7f9c ab3c 039b 533c 9e1c 04bd ec95 093b
00000080: d69d 8a3c 9f10 01bd 41a5 a93a 71ae 5e3c
00000090: 1852 5a3b c3db c03c a3c4 bf3b 9b2d 5d3c
000000a0: 4f23 013d a527 d4bb a165 503c f41b 1e3b
000000b0: d27b 58bb 1167 e03a 5418 7e3b 8e02 84bb
000000c0: 773c c23c b06f 9d3a 801a b93c c4f9 1e3b
000000d0: d0bc b43c 6b0b 073d 5377 efbc f576 bb3c
000000e0: a822 f23c 92f8 5dbc d1ac dc3b 9492 88b8
000000f0: 2eb3 253b aab4 5b3a 60d1 13ba e717 f5bc
00000100: aa26 27bc eed4 df3a 5184 04bb 661a 423c
00000110: a458 e13c 0fd4 6b3c 68d0 5b3c 2d4b 563c
00000120: a1ed 0d3c 8411 9b3c 609f f53a c6be 41bc
00000130: fa09 65bc 0cd8 a33c 5b15 6c3c 2432 f03b
00000140: 3a6f 183b f538 6d3c 4934 07bb 235c 923b
00000150: bd7c c1ba bccb 05ba d894 453d 4dd9 e93c
00000160: b524 893c 253a 0abd eb9f c8bb 3c94 013b
00000170: 3461 fb3b 3a13 c43a c290 ee3c e7fa 663b
00000180: fab9 85bb 2821 933c 5a0c dc3a 7e91 df3c
00000190: 8f49 a93c 13c5 8d3b 7657 873b f1c7 b83c
000001a0: 508b a1ba c13f 2f3b 566b c73c 9a66 4e3c
000001b0: b444 9f3c 0aa5 733b 1dee a63c 99f3 453c
000001c0: 6bd8 50bc f7e0 d83c 5c69 59b9 8162 b5bb
000001d0: 60fe 0f3c 37b9 ffba b9ff 0b3c 87dd c1bc
000001e0: b3eb 26bc a549 783c 6cc0 9f3b 7f2e 5d3c
000001f0: 7bce 96bc 45da ca3b b7fc b13c f3a0 58bb
00000200: 26c4 ca3b 378a a83c 7fe8 30bc 7e30 61bc
00000210: 08c6 f73b 070f 453c 55b9 3ebc 543d a7bb
00000220: 9f36 a03b 5e64 f23b 2472 3b3c dae0 56bc
00000230: 717b 7cbc e16a 423c da6d 8a3c 9ef3 b43b
00000240: 240e 773b 26e4 0dba cd21 aabb 73db 393c
00000250: 3616 4ebc 7fd3 0b3c 9484 8a3c 705c 88bc
00000260: 7876 733c 1a1b cebb 8516 d6bb 143b c3bb
00000270: 1d37 6dbc ef59 393b 61ee a6ba 292a 32bc
00000280: cd17 1f3c f056 edba 79f4 f73b f7ef 503c
00000290: ff2c 79bb 684e 26bb e075 16bc 11fc 14bc
000002a0: 0d9c 21bc 81ee 693b 1bf2 b63b d684 8cbb
000002b0: a843 193c 0751 a6bb 2cb8 57bc 9527 a839
000002c0: 608f febb 362b 86bb 20f3 55bc 99a4 17ba
000002d0: 12fd aa3c 78ff e33b 3ae7 1b3c 17b7 a0bb
000002e0: 418b 71bc dde0 e2bb 72be ddbb 5018 20ba
000002f0: 15d3 d5bb ccba 563c 36ea 033c 2457 fc3b
-0.026779888 0.031050673 0.029635614 0.0050279857 0.0046323477 0.02513277 -0.043477047 -0.023755506
0.009424675 0.0007317445 -0.011553622 0.011674345 -0.035820663 0.002954199 0.0072942707 -0.015195524
0.02504029 0.0075398376 0.017898355 -0.001746845 0.0026699118 -0.0001141689 -0.0012905253 -0.011450119
-0.0035060518 0.0003934807 0.01133428 -0.012057307 0.020948647 0.012915376 -0.032253854 0.0020993901
0.016920965 -0.03150999 0.0012942926 0.013591395 0.0033313092 0.02354229 0.0058522983 0.013499643
0.031527814 -0.0064744526 0.012719543 0.0024125548 -0.0033032787 0.001712056 0.0038771825 -0.004028625
0.023710473 0.0012011435 0.022595644 0.0024257759 0.022062689 0.032969873 -0.029231703 0.022883872
0.029557541 -0.013548033 0.0067344685 -6.512288e-05 0.0025283801 0.0008381108 -0.0005638804 -0.029918624
-0.010202089 0.0017077008 -0.0020220468 0.011847114 0.027508087 0.01439382 0.013416387 0.013079447
0.008662612 0.01892925 0.0018739514 -0.011825269 -0.013979429 0.02000048 0.014409388 0.007330196
0.0023259656 0.014478912 -0.002063053 0.00446655 -0.0014761906 -0.0005103906 0.04823765 0.028546
0.016741136 -0.033746857 -0.0061225793 0.0019772192 0.0076714996 0.0014959343 0.02912176 0.0035244764
-0.004081008 0.017960146 0.0016788349 0.027291056 0.020664958 0.0043264716 0.004130299 0.022556277
-0.0012324844 0.002674088 0.024343174 0.012597704 0.01944194 0.0037177228 0.020377213 0.012082004
-0.012746911 0.02647446 -0.00020733982 -0.005535424 0.008788675 -0.0019510154 0.008544856 -0.023665203
-0.010188031 0.015154277 0.0048752334 0.013499855 -0.018409004 0.0061905705 0.02172695 -0.0033054918
0.0061879335 0.020573718 -0.010797619 -0.013744472 0.007561449 0.012027509 -0.011640866 -0.0051037464
0.004889324 0.0073972186 0.011440787 -0.013115132 -0.01541029 0.011866302 0.016898084 0.0055222055
0.0037697637 -0.000541272 -0.0051920176 0.011343825 -0.012578538 0.008534311 0.016908921 -0.01664564
0.014859788 -0.006289852 -0.0065334463 -0.0059579704 -0.014478472 0.0028282364 -0.0012735837 -0.01087431
0.009710264 -0.0018107574 0.007566985 0.012752525 -0.0038021205 -0.0025376324 -0.009183377 -0.0090933
-0.009863866 0.0035695138 0.0055830604 -0.004288296 0.009354509 -0.005075577 -0.013166469 0.00032072948
-0.0077685565 -0.0040945066 -0.013058454 -0.000578472 0.020872626 0.0069579445 0.009515578 -0.0049046385
-0.014742673 -0.0069237784 -0.0067670876 -0.00061071385 -0.006525407 0.013106059 0.008051446 0.0077008177

arith.constant14 f4 [15]
00000000: 3ed4 b13c 36a0 fa3b 542f 3b3c 5c55 323d
00000010: 9fc2 84bc de5a a63b 677c 623d d3e6 14bd
00000020: bf3b 1e3d ceba 8dbd 99f2 a7bd 65f5 2cbd
00000030: 23f8 603c 3cc2 ed3c ecd3 99bb
0.02170765 0.007648493 0.011424858 0.043538436 -0.016206084 0.00507675 0.05529442 -0.036352944
0.038631197 -0.06920396 -0.08200569 -0.042226214 0.013731035 0.029023282 -0.0046944525

arith.constant35 f4 [192]
00000000: 7f61 dbbc fb5d fe3c 63c6 f23c cdc1 a43b
00000010: f3ca 973b 3de3 cd3c fd14 32bd e89a c2bc
00000020: f469 1a3c 8bd2 3f3a 674b 3dbc c045 3f3c
00000030: b0b8 12bd 3c9b 413b c704 ef3b a6f6 78bc
00000040: 4b21 cd3c be10 f73b 929f 923c 64f6 e4ba
00000050: b0f9 2e3b f66d efb8 d826 a9ba 4899 3bbc
00000060: cac5 65bb 164c ce39 6ab3 393c 038c 45bc
00000070: 7f9c ab3c 039b 533c 9e1c 04bd ec95 093b
00000080: d69d 8a3c 9f10 01bd 41a5 a93a 71ae 5e3c
00000090: 1852 5a3b c3db c03c a3c4 bf3b 9b2d 5d3c
000000a0: 4f23 013d a527 d4bb a165 503c f41b 1e3b
000000b0: d27b 58bb 1167 e03a 5418 7e3b 8e02 84bb
000000c0: 773c c23c b06f 9d3a 801a b93c c4f9 1e3b
000000d0: d0bc b43c 6b0b 073d 5377 efbc f576 bb3c
000000e0: a822 f23c 92f8 5dbc d1ac dc3b 9492 88b8
000000f0: 2eb3 253b aab4 5b3a 60d1 13ba e717 f5bc
00000100: aa26 27bc eed4 df3a 5184 04bb 661a 423c
00000110: a458 e13c 0fd4 6b3c 68d0 5b3c 2d4b 563c
00000120: a1ed 0d3c 8411 9b3c 609f f53a c6be 41bc
00000130: fa09 65bc 0cd8 a33c 5b15 6c3c 2432 f03b
00000140: 3a6f 183b f538 6d3c 4934 07bb 235c 923b
00000150: bd7c c1ba bccb 05ba d894 453d 4dd9 e93c
00000160: b524 893c 253a 0abd eb9f c8bb 3c94 013b
00000170: 3461 fb3b 3a13 c43a c290 ee3c e7fa 663b
00000180: fab9 85bb 2821 933c 5a0c dc3a 7e91 df3c
00000190: 8f49 a93c 13c5 8d3b 7657 873b f1c7 b83c
000001a0: 508b a1ba c13f 2f3b 566b c73c 9a66 4e3c
000001b0: b444 9f3c 0aa5 733b 1dee a63c 99f3 453c
000001c0: 6bd8 50bc f7e0 d83c 5c69 59b9 8162 b5bb
000001d0: 60fe 0f3c 37b9 ffba b9ff 0b3c 87dd c1bc
000001e0: b3eb 26bc a549 783c 6cc0 9f3b 7f2e 5d3c
000001f0: 7bce 96bc 45da ca3b b7fc b13c f3a0 58bb
00000200: 26c4 ca3b 378a a83c 7fe8 30bc 7e30 61bc
00000210: 08c6 f73b 070f 453c 55b9 3ebc 543d a7bb
00000220: 9f36 a03b 5e64 f23b 2472 3b3c dae0 56bc
00000230: 717b 7cbc e16a 423c da6d 8a3c 9ef3 b43b
00000240: 240e 773b 26e4 0dba cd21 aabb 73db 393c
00000250: 3616 4ebc 7fd3 0b3c 9484 8a3c 705c 88bc
00000260: 7876 733c 1a1b cebb 8516 d6bb 143b c3bb
00000270: 1d37 6dbc ef59 393b 61ee a6ba 292a 32bc
00000280: cd17 1f3c f056 edba 79f4 f73b f7ef 503c
00000290: ff2c 79bb 684e 26bb e075 16bc 11fc 14bc
000002a0: 0d9c 21bc 81ee 693b 1bf2 b63b d684 8cbb
000002b0: a843 193c 0751 a6bb 2cb8 57bc 9527 a839
000002c0: 608f febb 362b 86bb 20f3 55bc 99a4 17ba
000002d0: 12fd aa3c 78ff e33b 3ae7 1b3c 17b7 a0bb
000002e0: 418b 71bc dde0 e2bb 72be ddbb 5018 20ba
000002f0: 15d3 d5bb ccba 563c 36ea 033c 2457 fc3b
-0.026779888 0.031050673 0.029635614 0.0050279857 0.0046323477 0.02513277 -0.043477047 -0.023755506
0.009424675 0.0007317445 -0.011553622 0.011674345 -0.035820663 0.002954199 0.0072942707 -0.015195524
0.02504029 0.0075398376 0.017898355 -0.001746845 0.0026699118 -0.0001141689 -0.0012905253 -0.011450119
-0.0035060518 0.0003934807 0.01133428 -0.012057307 0.020948647 0.012915376 -0.032253854 0.0020993901
0.016920965 -0.03150999 0.0012942926 0.013591395 0.0033313092 0.02354229 0.0058522983 0.013499643
0.031527814 -0.0064744526 0.012719543 0.0024125548 -0.0033032787 0.001712056 0.0038771825 -0.004028625
0.023710473 0.0012011435 0.022595644 0.0024257759 0.022062689 0.032969873 -0.029231703 0.022883872
0.029557541 -0.013548033 0.0067344685 -6.512288e-05 0.0025283801 0.0008381108 -0.0005638804 -0.029918624
-0.010202089 0.0017077008 -0.0020220468 0.011847114 0.027508087 0.01439382 0.013416387 0.013079447
0.008662612 0.01892925 0.0018739514 -0.011825269 -0.013979429 0.02000048 0.014409388 0.007330196
0.0023259656 0.014478912 -0.002063053 0.00446655 -0.0014761906 -0.0005103906 0.04823765 0.028546
0.016741136 -0.033746857 -0.0061225793 0.0019772192 0.0076714996 0.0014959343 0.02912176 0.0035244764
-0.004081008 0.017960146 0.0016788349 0.027291056 0.020664958 0.0043264716 0.004130299 0.022556277
-0.0012324844 0.002674088 0.024343174 0.012597704 0.01944194 0.0037177228 0.020377213 0.012082004
-0.012746911 0.02647446 -0.00020733982 -0.005535424 0.008788675 -0.0019510154 0.008544856 -0.023665203
-0.010188031 0.015154277 0.0048752334 0.013499855 -0.018409004 0.0061905705 0.02172695 -0.0033054918
0.0061879335 0.020573718 -0.010797619 -0.013744472 0.007561449 0.012027509 -0.011640866 -0.0051037464
0.004889324 0.0073972186 0.011440787 -0.013115132 -0.01541029 0.011866302 0.016898084 0.0055222055
0.0037697637 -0.000541272 -0.0051920176 0.011343825 -0.012578538 0.008534311 0.016908921 -0.01664564
0.014859788 -0.006289852 -0.0065334463 -0.0059579704 -0.014478472 0.0028282364 -0.0012735837 -0.01087431
0.009710264 -0.0018107574 0.007566985 0.012752525 -0.0038021205 -0.0025376324 -0.009183377 -0.0090933
-0.009863866 0.0035695138 0.0055830604 -0.004288296 0.009354509 -0.005075577 -0.013166469 0.00032072948
-0.0077685565 -0.0040945066 -0.013058454 -0.000578472 0.020872626 0.0069579445 0.009515578 -0.0049046385
-0.014742673 -0.0069237784 -0.0067670876 -0.00061071385 -0.006525407 0.013106059 0.008051446 0.0077008177
